…
I0712 11:42:31.817493  4010 solver.cpp:67] Creating training net from net file: ocr_en_set001_train_test.prototxt
I0712 11:42:31.817734  4010 net.cpp:313] The NetState phase (0) differed from the phase (1) specified by a rule in layer data
I0712 11:42:31.817806  4010 net.cpp:43] Initializing net from parameters: 
name: "ocr_en_set001_train_test"
layers {
  top: "data"
  top: "label"
  name: "data"
  type: DATA
  data_param {
    source: "/home/wuxiang/project/text_recognition/data/words/lmdb/set001_train_lmdb"
    batch_size: 128
    backend: LMDB
  }
  include {
    phase: TRAIN
  }
  transform_param {
    scale: 0.00390625
  }
}
layers {
  bottom: "data"
  top: "conv1"
  name: "conv1"
  type: CONVOLUTION
  convolution_param {
    num_output: 16
    stride: 1
    weight_filler {
      type: "xavier"
    }
    bias_filler {
      type: "constant"
    }
    kernel_h: 5
    kernel_w: 9
  }
}
layers {
  bottom: "conv1"
  top: "conv1"
  name: "relu1"
  type: RELU
}
layers {
  bottom: "conv1"
  top: "pool1"
  name: "pool1"
  type: POOLING
  pooling_param {
    pool: MAX
    kernel_size: 2
    stride: 2
  }
}
layers {
  bottom: "pool1"
  top: "conv2"
  name: "conv2"
  type: CONVOLUTION
  convolution_param {
    num_output: 32
    stride: 1
    weight_filler {
      type: "xavier"
    }
    bias_filler {
      type: "constant"
    }
    kernel_h: 5
    kernel_w: 9
  }
}
layers {
  bottom: "conv2"
  top: "conv2"
  name: "relu2"
  type: RELU
}
layers {
  bottom: "conv2"
  top: "pool2"
  name: "pool2"
  type: POOLING
  pooling_param {
    pool: MAX
    kernel_size: 2
    stride: 2
  }
}
layers {
  bottom: "pool2"
  top: "conv3"
  name: "conv3"
  type: CONVOLUTION
  convolution_param {
    num_output: 64
    stride: 1
    weight_filler {
      type: "xavier"
    }
    bias_filler {
      type: "constant"
    }
    kernel_h: 3
    kernel_w: 6
  }
}
layers {
  bottom: "conv3"
  top: "conv3"
  name: "relu3"
  type: RELU
}
layers {
  bottom: "conv3"
  top: "pool3"
  name: "pool3"
  type: POOLING
  pooling_param {
    pool: MAX
    kernel_size: 2
    stride: 2
  }
}
layers {
  bottom: "pool3"
  top: "conv4"
  name: "conv4"
  type: CONVOLUTION
  convolution_param {
    num_output: 96
    stride: 1
    weight_filler {
      type: "xavier"
    }
    bias_filler {
      type: "constant"
    }
    kernel_h: 2
    kernel_w: 3
  }
}
layers {
  bottom: "conv4"
  top: "conv4"
  name: "relu4"
  type: RELU
}
layers {
  bottom: "conv4"
  top: "fc1"
  name: "fc1"
  type: INNER_PRODUCT
  inner_product_param {
    num_output: 64
    weight_filler {
      type: "xavier"
    }
    bias_filler {
      type: "constant"
      value: 0.1
    }
  }
}
layers {
  bottom: "fc1"
  top: "fc1"
  name: "relu5"
  type: RELU
}
layers {
  bottom: "fc1"
  top: "dropout1"
  name: "dropout1"
  type: DROPOUT
  dropout_param {
    dropout_ratio: 0.5
  }
}
layers {
  bottom: "dropout1"
  top: "fc2"
  name: "fc2"
  type: INNER_PRODUCT
  inner_product_param {
    num_output: 19
    weight_filler {
      type: "xavier"
    }
    bias_filler {
      type: "constant"
      value: 0.1
    }
  }
}
layers {
  bottom: "fc2"
  top: "prob"
  name: "softmax"
  type: SOFTMAX
}
layers {
  bottom: "prob"
  bottom: "label"
  top: "accuracy"
  name: "accuracy"
  type: ACCURACY
}
layers {
  bottom: "fc2"
  bottom: "label"
  name: "loss"
  type: SOFTMAX_LOSS
  loss_weight: 1
}
state {
  phase: TRAIN
}
I0712 11:42:31.818217  4010 net.cpp:71] Creating Layer data
I0712 11:42:31.818227  4010 net.cpp:394] data -> data
I0712 11:42:31.818239  4010 net.cpp:394] data -> label
I0712 11:42:31.818250  4010 net.cpp:100] Setting up data
I0712 11:42:31.818327  4010 data_layer.cpp:68] Opening lmdb /home/wuxiang/project/text_recognition/data/words/lmdb/set001_train_lmdb
I0712 11:42:31.818382  4010 data_layer.cpp:128] output data size: 128,1,50,100
I0712 11:42:31.818949  4010 net.cpp:107] Top shape: 128 1 50 100 (640000)
I0712 11:42:31.818959  4010 net.cpp:107] Top shape: 128 1 1 1 (128)
I0712 11:42:31.818966  4010 net.cpp:71] Creating Layer label_data_1_split
I0712 11:42:31.818971  4010 net.cpp:432] label_data_1_split <- label
I0712 11:42:31.818981  4010 net.cpp:394] label_data_1_split -> label_data_1_split_0
I0712 11:42:31.818989  4010 net.cpp:394] label_data_1_split -> label_data_1_split_1
I0712 11:42:31.818994  4010 net.cpp:100] Setting up label_data_1_split
I0712 11:42:31.819001  4010 net.cpp:107] Top shape: 128 1 1 1 (128)
I0712 11:42:31.819005  4010 net.cpp:107] Top shape: 128 1 1 1 (128)
I0712 11:42:31.819011  4010 net.cpp:71] Creating Layer conv1
I0712 11:42:31.819016  4010 net.cpp:432] conv1 <- data
I0712 11:42:31.819021  4010 net.cpp:394] conv1 -> conv1
I0712 11:42:31.819027  4010 net.cpp:100] Setting up conv1
I0712 11:42:31.819340  4010 net.cpp:107] Top shape: 128 16 46 92 (8667136)
I0712 11:42:31.819352  4010 net.cpp:71] Creating Layer relu1
I0712 11:42:31.819357  4010 net.cpp:432] relu1 <- conv1
I0712 11:42:31.819362  4010 net.cpp:383] relu1 -> conv1 (in-place)
I0712 11:42:31.819367  4010 net.cpp:100] Setting up relu1
I0712 11:42:31.819373  4010 net.cpp:107] Top shape: 128 16 46 92 (8667136)
I0712 11:42:31.819380  4010 net.cpp:71] Creating Layer pool1
I0712 11:42:31.819385  4010 net.cpp:432] pool1 <- conv1
I0712 11:42:31.819389  4010 net.cpp:394] pool1 -> pool1
I0712 11:42:31.819396  4010 net.cpp:100] Setting up pool1
I0712 11:42:31.819406  4010 net.cpp:107] Top shape: 128 16 23 46 (2166784)
I0712 11:42:31.819411  4010 net.cpp:71] Creating Layer conv2
I0712 11:42:31.819416  4010 net.cpp:432] conv2 <- pool1
I0712 11:42:31.819421  4010 net.cpp:394] conv2 -> conv2
I0712 11:42:31.819427  4010 net.cpp:100] Setting up conv2
I0712 11:42:31.819548  4010 net.cpp:107] Top shape: 128 32 19 38 (2957312)
I0712 11:42:31.819557  4010 net.cpp:71] Creating Layer relu2
I0712 11:42:31.819562  4010 net.cpp:432] relu2 <- conv2
I0712 11:42:31.819567  4010 net.cpp:383] relu2 -> conv2 (in-place)
I0712 11:42:31.819572  4010 net.cpp:100] Setting up relu2
I0712 11:42:31.819576  4010 net.cpp:107] Top shape: 128 32 19 38 (2957312)
I0712 11:42:31.819582  4010 net.cpp:71] Creating Layer pool2
I0712 11:42:31.819587  4010 net.cpp:432] pool2 <- conv2
I0712 11:42:31.819592  4010 net.cpp:394] pool2 -> pool2
I0712 11:42:31.819598  4010 net.cpp:100] Setting up pool2
I0712 11:42:31.819603  4010 net.cpp:107] Top shape: 128 32 10 19 (778240)
I0712 11:42:31.819609  4010 net.cpp:71] Creating Layer conv3
I0712 11:42:31.819614  4010 net.cpp:432] conv3 <- pool2
I0712 11:42:31.819620  4010 net.cpp:394] conv3 -> conv3
I0712 11:42:31.819627  4010 net.cpp:100] Setting up conv3
I0712 11:42:31.819814  4010 net.cpp:107] Top shape: 128 64 8 14 (917504)
I0712 11:42:31.819824  4010 net.cpp:71] Creating Layer relu3
I0712 11:42:31.819829  4010 net.cpp:432] relu3 <- conv3
I0712 11:42:31.819834  4010 net.cpp:383] relu3 -> conv3 (in-place)
I0712 11:42:31.819839  4010 net.cpp:100] Setting up relu3
I0712 11:42:31.819844  4010 net.cpp:107] Top shape: 128 64 8 14 (917504)
I0712 11:42:31.819849  4010 net.cpp:71] Creating Layer pool3
I0712 11:42:31.819854  4010 net.cpp:432] pool3 <- conv3
I0712 11:42:31.819859  4010 net.cpp:394] pool3 -> pool3
I0712 11:42:31.819864  4010 net.cpp:100] Setting up pool3
I0712 11:42:31.819869  4010 net.cpp:107] Top shape: 128 64 4 7 (229376)
I0712 11:42:31.819875  4010 net.cpp:71] Creating Layer conv4
I0712 11:42:31.819880  4010 net.cpp:432] conv4 <- pool3
I0712 11:42:31.819886  4010 net.cpp:394] conv4 -> conv4
I0712 11:42:31.819892  4010 net.cpp:100] Setting up conv4
I0712 11:42:31.820080  4010 net.cpp:107] Top shape: 128 96 3 5 (184320)
I0712 11:42:31.820088  4010 net.cpp:71] Creating Layer relu4
I0712 11:42:31.820093  4010 net.cpp:432] relu4 <- conv4
I0712 11:42:31.820098  4010 net.cpp:383] relu4 -> conv4 (in-place)
I0712 11:42:31.820102  4010 net.cpp:100] Setting up relu4
I0712 11:42:31.820129  4010 net.cpp:107] Top shape: 128 96 3 5 (184320)
I0712 11:42:31.820137  4010 net.cpp:71] Creating Layer fc1
I0712 11:42:31.820142  4010 net.cpp:432] fc1 <- conv4
I0712 11:42:31.820147  4010 net.cpp:394] fc1 -> fc1
I0712 11:42:31.820153  4010 net.cpp:100] Setting up fc1
I0712 11:42:31.820616  4010 net.cpp:107] Top shape: 128 64 1 1 (8192)
I0712 11:42:31.820626  4010 net.cpp:71] Creating Layer relu5
I0712 11:42:31.820631  4010 net.cpp:432] relu5 <- fc1
I0712 11:42:31.820636  4010 net.cpp:383] relu5 -> fc1 (in-place)
I0712 11:42:31.820641  4010 net.cpp:100] Setting up relu5
I0712 11:42:31.820644  4010 net.cpp:107] Top shape: 128 64 1 1 (8192)
I0712 11:42:31.820650  4010 net.cpp:71] Creating Layer dropout1
I0712 11:42:31.820655  4010 net.cpp:432] dropout1 <- fc1
I0712 11:42:31.820660  4010 net.cpp:394] dropout1 -> dropout1
I0712 11:42:31.820667  4010 net.cpp:100] Setting up dropout1
I0712 11:42:31.820673  4010 net.cpp:107] Top shape: 128 64 1 1 (8192)
I0712 11:42:31.820678  4010 net.cpp:161]  share_mask().size(): 0
I0712 11:42:31.820688  4010 net.cpp:71] Creating Layer fc2
I0712 11:42:31.820693  4010 net.cpp:432] fc2 <- dropout1
I0712 11:42:31.820698  4010 net.cpp:394] fc2 -> fc2
I0712 11:42:31.820703  4010 net.cpp:100] Setting up fc2
I0712 11:42:31.820716  4010 net.cpp:107] Top shape: 128 19 1 1 (2432)
I0712 11:42:31.820724  4010 net.cpp:71] Creating Layer fc2_fc2_0_split
I0712 11:42:31.820729  4010 net.cpp:432] fc2_fc2_0_split <- fc2
I0712 11:42:31.820734  4010 net.cpp:394] fc2_fc2_0_split -> fc2_fc2_0_split_0
I0712 11:42:31.820739  4010 net.cpp:394] fc2_fc2_0_split -> fc2_fc2_0_split_1
I0712 11:42:31.820744  4010 net.cpp:100] Setting up fc2_fc2_0_split
I0712 11:42:31.820749  4010 net.cpp:107] Top shape: 128 19 1 1 (2432)
I0712 11:42:31.820755  4010 net.cpp:107] Top shape: 128 19 1 1 (2432)
I0712 11:42:31.820761  4010 net.cpp:71] Creating Layer softmax
I0712 11:42:31.820766  4010 net.cpp:432] softmax <- fc2_fc2_0_split_0
I0712 11:42:31.820771  4010 net.cpp:394] softmax -> prob
I0712 11:42:31.820778  4010 net.cpp:100] Setting up softmax
I0712 11:42:31.820785  4010 net.cpp:107] Top shape: 128 19 1 1 (2432)
I0712 11:42:31.820791  4010 net.cpp:71] Creating Layer accuracy
I0712 11:42:31.820796  4010 net.cpp:432] accuracy <- prob
I0712 11:42:31.820799  4010 net.cpp:432] accuracy <- label_data_1_split_0
I0712 11:42:31.820804  4010 net.cpp:394] accuracy -> accuracy
I0712 11:42:31.820808  4010 net.cpp:100] Setting up accuracy
I0712 11:42:31.820813  4010 net.cpp:107] Top shape: 1 1 1 1 (1)
I0712 11:42:31.820821  4010 net.cpp:71] Creating Layer loss
I0712 11:42:31.820824  4010 net.cpp:432] loss <- fc2_fc2_0_split_1
I0712 11:42:31.820828  4010 net.cpp:432] loss <- label_data_1_split_1
I0712 11:42:31.820833  4010 net.cpp:394] loss -> (automatic)
I0712 11:42:31.820838  4010 net.cpp:100] Setting up loss
I0712 11:42:31.820850  4010 net.cpp:107] Top shape: 1 1 1 1 (1)
I0712 11:42:31.820855  4010 net.cpp:113]     with loss weight 1
I0712 11:42:31.820871  4010 net.cpp:208] loss needs backward computation.
I0712 11:42:31.820876  4010 net.cpp:210] accuracy does not need backward computation.
I0712 11:42:31.820881  4010 net.cpp:210] softmax does not need backward computation.
I0712 11:42:31.820886  4010 net.cpp:208] fc2_fc2_0_split needs backward computation.
…
I0712 11:42:31.821228  4010 solver.cpp:151] Creating test net (#0) specified by net file: ocr_en_set001_train_test.prototxt
I0712 11:42:31.821247  4010 net.cpp:313] The NetState phase (1) differed from the phase (0) specified by a rule in layer data
I0712 11:42:31.821308  4010 net.cpp:43] Initializing net from parameters: 
name: "ocr_en_set001_train_test"
layers {
  top: "data"
  top: "label"
  name: "data"
  type: DATA
  data_param {
    source: "/home/wuxiang/project/text_recognition/data/words/lmdb/set001_val_lmdb"
    batch_size: 30
    backend: LMDB
  }
  include {
    phase: TEST
  }
  transform_param {
    scale: 0.00390625
  }
}
layers {
  bottom: "data"
  top: "conv1"
  name: "conv1"
  type: CONVOLUTION
  convolution_param {
    num_output: 16
    stride: 1
    weight_filler {
      type: "xavier"
    }
    bias_filler {
      type: "constant"
    }
    kernel_h: 5
    kernel_w: 9
  }
}
layers {
  bottom: "conv1"
  top: "conv1"
  name: "relu1"
  type: RELU
}
layers {
  bottom: "conv1"
  top: "pool1"
  name: "pool1"
  type: POOLING
  pooling_param {
    pool: MAX
    kernel_size: 2
    stride: 2
  }
}
layers {
  bottom: "pool1"
  top: "conv2"
  name: "conv2"
  type: CONVOLUTION
  convolution_param {
    num_output: 32
    stride: 1
    weight_filler {
      type: "xavier"
    }
    bias_filler {
      type: "constant"
    }
    kernel_h: 5
    kernel_w: 9
  }
}
layers {
  bottom: "conv2"
  top: "conv2"
  name: "relu2"
  type: RELU
}
layers {
  bottom: "conv2"
  top: "pool2"
  name: "pool2"
  type: POOLING
  pooling_param {
    pool: MAX
    kernel_size: 2
    stride: 2
  }
}
layers {
  bottom: "pool2"
  top: "conv3"
  name: "conv3"
  type: CONVOLUTION
  convolution_param {
    num_output: 64
    stride: 1
    weight_filler {
      type: "xavier"
    }
    bias_filler {
      type: "constant"
    }
    kernel_h: 3
    kernel_w: 6
  }
}
layers {
  bottom: "conv3"
  top: "conv3"
  name: "relu3"
  type: RELU
}
layers {
  bottom: "conv3"
  top: "pool3"
  name: "pool3"
  type: POOLING
  pooling_param {
    pool: MAX
    kernel_size: 2
    stride: 2
  }
}
layers {
  bottom: "pool3"
  top: "conv4"
  name: "conv4"
  type: CONVOLUTION
  convolution_param {
    num_output: 96
    stride: 1
    weight_filler {
      type: "xavier"
    }
    bias_filler {
      type: "constant"
    }
    kernel_h: 2
    kernel_w: 3
  }
}
layers {
  bottom: "conv4"
  top: "conv4"
  name: "relu4"
  type: RELU
}
layers {
  bottom: "conv4"
  top: "fc1"
  name: "fc1"
  type: INNER_PRODUCT
  inner_product_param {
    num_output: 64
    weight_filler {
      type: "xavier"
    }
    bias_filler {
      type: "constant"
      value: 0.1
    }
  }
}
layers {
  bottom: "fc1"
  top: "fc1"
  name: "relu5"
  type: RELU
}
layers {
  bottom: "fc1"
  top: "dropout1"
  name: "dropout1"
  type: DROPOUT
  dropout_param {
    dropout_ratio: 0.5
  }
}
layers {
  bottom: "dropout1"
  top: "fc2"
  name: "fc2"
  type: INNER_PRODUCT
  inner_product_param {
    num_output: 19
    weight_filler {
      type: "xavier"
    }
    bias_filler {
      type: "constant"
      value: 0.1
    }
  }
}
layers {
  bottom: "fc2"
  top: "prob"
  name: "softmax"
  type: SOFTMAX
}
layers {
  bottom: "prob"
  bottom: "label"
  top: "accuracy"
  name: "accuracy"
  type: ACCURACY
}
layers {
  bottom: "fc2"
  bottom: "label"
  name: "loss"
  type: SOFTMAX_LOSS
  loss_weight: 1
}
state {
  phase: TEST
}
I0712 11:42:31.821717  4010 net.cpp:71] Creating Layer data
I0712 11:42:31.821727  4010 net.cpp:394] data -> data
I0712 11:42:31.821734  4010 net.cpp:394] data -> label
I0712 11:42:31.821740  4010 net.cpp:100] Setting up data
I0712 11:42:31.821774  4010 data_layer.cpp:68] Opening lmdb /home/wuxiang/project/text_recognition/data/words/lmdb/set001_val_lmdb
I0712 11:42:31.821789  4010 data_layer.cpp:128] output data size: 30,1,50,100
I0712 11:42:31.821924  4010 net.cpp:107] Top shape: 30 1 50 100 (150000)
I0712 11:42:31.821933  4010 net.cpp:107] Top shape: 30 1 1 1 (30)
I0712 11:42:31.821939  4010 net.cpp:71] Creating Layer label_data_1_split
I0712 11:42:31.821944  4010 net.cpp:432] label_data_1_split <- label
I0712 11:42:31.821949  4010 net.cpp:394] label_data_1_split -> label_data_1_split_0
I0712 11:42:31.821956  4010 net.cpp:394] label_data_1_split -> label_data_1_split_1
I0712 11:42:31.821962  4010 net.cpp:100] Setting up label_data_1_split
I0712 11:42:31.821969  4010 net.cpp:107] Top shape: 30 1 1 1 (30)
I0712 11:42:31.821972  4010 net.cpp:107] Top shape: 30 1 1 1 (30)
I0712 11:42:31.821979  4010 net.cpp:71] Creating Layer conv1
I0712 11:42:31.821984  4010 net.cpp:432] conv1 <- data
I0712 11:42:31.821988  4010 net.cpp:394] conv1 -> conv1
I0712 11:42:31.821995  4010 net.cpp:100] Setting up conv1
I0712 11:42:31.822011  4010 net.cpp:107] Top shape: 30 16 46 92 (2031360)
I0712 11:42:31.822021  4010 net.cpp:71] Creating Layer relu1
I0712 11:42:31.822026  4010 net.cpp:432] relu1 <- conv1
I0712 11:42:31.822031  4010 net.cpp:383] relu1 -> conv1 (in-place)
I0712 11:42:31.822036  4010 net.cpp:100] Setting up relu1
I0712 11:42:31.822039  4010 net.cpp:107] Top shape: 30 16 46 92 (2031360)
I0712 11:42:31.822044  4010 net.cpp:71] Creating Layer pool1
I0712 11:42:31.822048  4010 net.cpp:432] pool1 <- conv1
I0712 11:42:31.822052  4010 net.cpp:394] pool1 -> pool1
I0712 11:42:31.822057  4010 net.cpp:100] Setting up pool1
I0712 11:42:31.822063  4010 net.cpp:107] Top shape: 30 16 23 46 (507840)
I0712 11:42:31.822069  4010 net.cpp:71] Creating Layer conv2
I0712 11:42:31.822073  4010 net.cpp:432] conv2 <- pool1
I0712 11:42:31.822079  4010 net.cpp:394] conv2 -> conv2
I0712 11:42:31.822085  4010 net.cpp:100] Setting up conv2
I0712 11:42:31.822206  4010 net.cpp:107] Top shape: 30 32 19 38 (693120)
I0712 11:42:31.822214  4010 net.cpp:71] Creating Layer relu2
I0712 11:42:31.822219  4010 net.cpp:432] relu2 <- conv2
I0712 11:42:31.822223  4010 net.cpp:383] relu2 -> conv2 (in-place)
I0712 11:42:31.822228  4010 net.cpp:100] Setting up relu2
I0712 11:42:31.822233  4010 net.cpp:107] Top shape: 30 32 19 38 (693120)
I0712 11:42:31.822239  4010 net.cpp:71] Creating Layer pool2
I0712 11:42:31.822244  4010 net.cpp:432] pool2 <- conv2
I0712 11:42:31.822248  4010 net.cpp:394] pool2 -> pool2
I0712 11:42:31.822253  4010 net.cpp:100] Setting up pool2
I0712 11:42:31.822258  4010 net.cpp:107] Top shape: 30 32 10 19 (182400)
I0712 11:42:31.822264  4010 net.cpp:71] Creating Layer conv3
I0712 11:42:31.822269  4010 net.cpp:432] conv3 <- pool2
I0712 11:42:31.822274  4010 net.cpp:394] conv3 -> conv3
I0712 11:42:31.822280  4010 net.cpp:100] Setting up conv3
I0712 11:42:31.822469  4010 net.cpp:107] Top shape: 30 64 8 14 (215040)
I0712 11:42:31.822479  4010 net.cpp:71] Creating Layer relu3
I0712 11:42:31.822484  4010 net.cpp:432] relu3 <- conv3
I0712 11:42:31.822489  4010 net.cpp:383] relu3 -> conv3 (in-place)
I0712 11:42:31.822494  4010 net.cpp:100] Setting up relu3
I0712 11:42:31.822497  4010 net.cpp:107] Top shape: 30 64 8 14 (215040)
I0712 11:42:31.822501  4010 net.cpp:71] Creating Layer pool3
I0712 11:42:31.822506  4010 net.cpp:432] pool3 <- conv3
I0712 11:42:31.822511  4010 net.cpp:394] pool3 -> pool3
I0712 11:42:31.822517  4010 net.cpp:100] Setting up pool3
I0712 11:42:31.822522  4010 net.cpp:107] Top shape: 30 64 4 7 (53760)
I0712 11:42:31.822527  4010 net.cpp:71] Creating Layer conv4
I0712 11:42:31.822552  4010 net.cpp:432] conv4 <- pool3
I0712 11:42:31.822561  4010 net.cpp:394] conv4 -> conv4
I0712 11:42:31.822566  4010 net.cpp:100] Setting up conv4
I0712 11:42:31.822764  4010 net.cpp:107] Top shape: 30 96 3 5 (43200)
I0712 11:42:31.822773  4010 net.cpp:71] Creating Layer relu4
I0712 11:42:31.822777  4010 net.cpp:432] relu4 <- conv4
I0712 11:42:31.822783  4010 net.cpp:383] relu4 -> conv4 (in-place)
I0712 11:42:31.822788  4010 net.cpp:100] Setting up relu4
I0712 11:42:31.822793  4010 net.cpp:107] Top shape: 30 96 3 5 (43200)
I0712 11:42:31.822798  4010 net.cpp:71] Creating Layer fc1
I0712 11:42:31.822803  4010 net.cpp:432] fc1 <- conv4
I0712 11:42:31.822809  4010 net.cpp:394] fc1 -> fc1
I0712 11:42:31.822815  4010 net.cpp:100] Setting up fc1
I0712 11:42:31.823272  4010 net.cpp:107] Top shape: 30 64 1 1 (1920)
I0712 11:42:31.823284  4010 net.cpp:71] Creating Layer relu5
I0712 11:42:31.823289  4010 net.cpp:432] relu5 <- fc1
I0712 11:42:31.823294  4010 net.cpp:383] relu5 -> fc1 (in-place)
I0712 11:42:31.823298  4010 net.cpp:100] Setting up relu5
I0712 11:42:31.823303  4010 net.cpp:107] Top shape: 30 64 1 1 (1920)
I0712 11:42:31.823308  4010 net.cpp:71] Creating Layer dropout1
I0712 11:42:31.823312  4010 net.cpp:432] dropout1 <- fc1
I0712 11:42:31.823318  4010 net.cpp:394] dropout1 -> dropout1
I0712 11:42:31.823323  4010 net.cpp:100] Setting up dropout1
I0712 11:42:31.823328  4010 net.cpp:107] Top shape: 30 64 1 1 (1920)
I0712 11:42:31.823333  4010 net.cpp:161]  share_mask().size(): 0
I0712 11:42:31.823339  4010 net.cpp:71] Creating Layer fc2
I0712 11:42:31.823344  4010 net.cpp:432] fc2 <- dropout1
I0712 11:42:31.823350  4010 net.cpp:394] fc2 -> fc2
I0712 11:42:31.823356  4010 net.cpp:100] Setting up fc2
I0712 11:42:31.823369  4010 net.cpp:107] Top shape: 30 19 1 1 (570)
I0712 11:42:31.823376  4010 net.cpp:71] Creating Layer fc2_fc2_0_split
I0712 11:42:31.823381  4010 net.cpp:432] fc2_fc2_0_split <- fc2
I0712 11:42:31.823386  4010 net.cpp:394] fc2_fc2_0_split -> fc2_fc2_0_split_0
I0712 11:42:31.823391  4010 net.cpp:394] fc2_fc2_0_split -> fc2_fc2_0_split_1
I0712 11:42:31.823397  4010 net.cpp:100] Setting up fc2_fc2_0_split
I0712 11:42:31.823401  4010 net.cpp:107] Top shape: 30 19 1 1 (570)
I0712 11:42:31.823405  4010 net.cpp:107] Top shape: 30 19 1 1 (570)
I0712 11:42:31.823411  4010 net.cpp:71] Creating Layer softmax
I0712 11:42:31.823416  4010 net.cpp:432] softmax <- fc2_fc2_0_split_0
I0712 11:42:31.823421  4010 net.cpp:394] softmax -> prob
I0712 11:42:31.823427  4010 net.cpp:100] Setting up softmax
I0712 11:42:31.823432  4010 net.cpp:107] Top shape: 30 19 1 1 (570)
I0712 11:42:31.823438  4010 net.cpp:71] Creating Layer accuracy
I0712 11:42:31.823443  4010 net.cpp:432] accuracy <- prob
I0712 11:42:31.823448  4010 net.cpp:432] accuracy <- label_data_1_split_0
I0712 11:42:31.823452  4010 net.cpp:394] accuracy -> accuracy
I0712 11:42:31.823458  4010 net.cpp:100] Setting up accuracy
I0712 11:42:31.823463  4010 net.cpp:107] Top shape: 1 1 1 1 (1)
I0712 11:42:31.823469  4010 net.cpp:71] Creating Layer loss
I0712 11:42:31.823474  4010 net.cpp:432] loss <- fc2_fc2_0_split_1
I0712 11:42:31.823479  4010 net.cpp:432] loss <- label_data_1_split_1
I0712 11:42:31.823484  4010 net.cpp:394] loss -> (automatic)
I0712 11:42:31.823489  4010 net.cpp:100] Setting up loss
I0712 11:42:31.823496  4010 net.cpp:107] Top shape: 1 1 1 1 (1)
I0712 11:42:31.823501  4010 net.cpp:113]     with loss weight 1
I0712 11:42:31.823508  4010 net.cpp:208] loss needs backward computation.
I0712 11:42:31.823513  4010 net.cpp:210] accuracy does not need backward computation.
I0712 11:42:31.823518  4010 net.cpp:210] softmax does not need backward computation.
I0712 11:42:31.823521  4010 net.cpp:208] fc2_fc2_0_split needs backward computation.
…
