…
I0712 15:01:06.388967  7684 solver.cpp:67] Creating training net from net file: ocr_en_set001_train_test.prototxt
I0712 15:01:06.389215  7684 net.cpp:313] The NetState phase (0) differed from the phase (1) specified by a rule in layer data
I0712 15:01:06.389288  7684 net.cpp:43] Initializing net from parameters: 
name: "ocr_en_set001_train_test"
layers {
  top: "data"
  top: "label"
  name: "data"
  type: DATA
  data_param {
    source: "/home/wuxiang/project/text_recognition/data/words/lmdb/set001_train_lmdb"
    batch_size: 128
    backend: LMDB
  }
  include {
    phase: TRAIN
  }
  transform_param {
    scale: 0.00390625
  }
}
layers {
  bottom: "data"
  top: "conv1"
  name: "conv1"
  type: CONVOLUTION
  convolution_param {
    num_output: 16
    stride: 1
    weight_filler {
      type: "xavier"
    }
    bias_filler {
      type: "constant"
    }
    kernel_h: 5
    kernel_w: 9
  }
}
layers {
  bottom: "conv1"
  top: "conv1"
  name: "relu1"
  type: RELU
}
layers {
  bottom: "conv1"
  top: "pool1"
  name: "pool1"
  type: POOLING
  pooling_param {
    pool: MAX
    kernel_size: 2
    stride: 2
  }
}
layers {
  bottom: "pool1"
  top: "conv2"
  name: "conv2"
  type: CONVOLUTION
  convolution_param {
    num_output: 32
    stride: 1
    weight_filler {
      type: "xavier"
    }
    bias_filler {
      type: "constant"
    }
    kernel_h: 5
    kernel_w: 9
  }
}
layers {
  bottom: "conv2"
  top: "conv2"
  name: "relu2"
  type: RELU
}
layers {
  bottom: "conv2"
  top: "pool2"
  name: "pool2"
  type: POOLING
  pooling_param {
    pool: MAX
    kernel_size: 2
    stride: 2
  }
}
layers {
  bottom: "pool2"
  top: "conv3"
  name: "conv3"
  type: CONVOLUTION
  convolution_param {
    num_output: 64
    stride: 1
    weight_filler {
      type: "xavier"
    }
    bias_filler {
      type: "constant"
    }
    kernel_h: 3
    kernel_w: 6
  }
}
layers {
  bottom: "conv3"
  top: "conv3"
  name: "relu3"
  type: RELU
}
layers {
  bottom: "conv3"
  top: "pool3"
  name: "pool3"
  type: POOLING
  pooling_param {
    pool: MAX
    kernel_size: 2
    stride: 2
  }
}
layers {
  bottom: "pool3"
  top: "conv4"
  name: "conv4"
  type: CONVOLUTION
  convolution_param {
    num_output: 96
    stride: 1
    weight_filler {
      type: "xavier"
    }
    bias_filler {
      type: "constant"
    }
    kernel_h: 2
    kernel_w: 3
  }
}
layers {
  bottom: "conv4"
  top: "conv4"
  name: "relu4"
  type: RELU
}
layers {
  bottom: "conv4"
  top: "fc1"
  name: "fc1"
  type: INNER_PRODUCT
  inner_product_param {
    num_output: 64
    weight_filler {
      type: "xavier"
    }
    bias_filler {
      type: "constant"
      value: 0.1
    }
  }
}
layers {
  bottom: "fc1"
  top: "fc1"
  name: "relu5"
  type: RELU
}
layers {
  bottom: "fc1"
  top: "dropout1"
  name: "dropout1"
  type: DROPOUT
  dropout_param {
    dropout_ratio: 0.5
  }
}
layers {
  bottom: "dropout1"
  top: "fc2"
  name: "fc2"
  type: INNER_PRODUCT
  inner_product_param {
    num_output: 19
    weight_filler {
      type: "xavier"
    }
    bias_filler {
      type: "constant"
      value: 0.1
    }
  }
}
layers {
  bottom: "fc2"
  top: "prob"
  name: "softmax"
  type: SOFTMAX
}
layers {
  bottom: "prob"
  bottom: "label"
  top: "accuracy"
  name: "accuracy"
  type: ACCURACY
}
layers {
  bottom: "fc2"
  bottom: "label"
  name: "loss"
  type: SOFTMAX_LOSS
  loss_weight: 1
}
state {
  phase: TRAIN
}
I0712 15:01:06.389704  7684 net.cpp:71] Creating Layer data
I0712 15:01:06.389715  7684 net.cpp:394] data -> data
I0712 15:01:06.389729  7684 net.cpp:394] data -> label
I0712 15:01:06.389741  7684 net.cpp:100] Setting up data
I0712 15:01:06.389812  7684 data_layer.cpp:68] Opening lmdb /home/wuxiang/project/text_recognition/data/words/lmdb/set001_train_lmdb
I0712 15:01:06.389873  7684 data_layer.cpp:128] output data size: 128,1,50,100
I0712 15:01:06.390406  7684 net.cpp:107] Top shape: 128 1 50 100 (640000)
I0712 15:01:06.390416  7684 net.cpp:107] Top shape: 128 1 1 1 (128)
I0712 15:01:06.390424  7684 net.cpp:71] Creating Layer label_data_1_split
I0712 15:01:06.390429  7684 net.cpp:432] label_data_1_split <- label
I0712 15:01:06.390440  7684 net.cpp:394] label_data_1_split -> label_data_1_split_0
I0712 15:01:06.390447  7684 net.cpp:394] label_data_1_split -> label_data_1_split_1
I0712 15:01:06.390455  7684 net.cpp:100] Setting up label_data_1_split
I0712 15:01:06.390461  7684 net.cpp:107] Top shape: 128 1 1 1 (128)
I0712 15:01:06.390466  7684 net.cpp:107] Top shape: 128 1 1 1 (128)
I0712 15:01:06.390475  7684 net.cpp:71] Creating Layer conv1
I0712 15:01:06.390480  7684 net.cpp:432] conv1 <- data
I0712 15:01:06.390485  7684 net.cpp:394] conv1 -> conv1
I0712 15:01:06.390491  7684 net.cpp:100] Setting up conv1
I0712 15:01:06.390816  7684 net.cpp:107] Top shape: 128 16 46 92 (8667136)
I0712 15:01:06.390830  7684 net.cpp:71] Creating Layer relu1
I0712 15:01:06.390835  7684 net.cpp:432] relu1 <- conv1
I0712 15:01:06.390841  7684 net.cpp:383] relu1 -> conv1 (in-place)
I0712 15:01:06.390846  7684 net.cpp:100] Setting up relu1
I0712 15:01:06.390851  7684 net.cpp:107] Top shape: 128 16 46 92 (8667136)
I0712 15:01:06.390858  7684 net.cpp:71] Creating Layer pool1
I0712 15:01:06.390862  7684 net.cpp:432] pool1 <- conv1
I0712 15:01:06.390868  7684 net.cpp:394] pool1 -> pool1
I0712 15:01:06.390875  7684 net.cpp:100] Setting up pool1
I0712 15:01:06.390885  7684 net.cpp:107] Top shape: 128 16 23 46 (2166784)
I0712 15:01:06.390893  7684 net.cpp:71] Creating Layer conv2
I0712 15:01:06.390898  7684 net.cpp:432] conv2 <- pool1
I0712 15:01:06.390904  7684 net.cpp:394] conv2 -> conv2
I0712 15:01:06.390910  7684 net.cpp:100] Setting up conv2
I0712 15:01:06.391036  7684 net.cpp:107] Top shape: 128 32 19 38 (2957312)
I0712 15:01:06.391046  7684 net.cpp:71] Creating Layer relu2
I0712 15:01:06.391052  7684 net.cpp:432] relu2 <- conv2
I0712 15:01:06.391057  7684 net.cpp:383] relu2 -> conv2 (in-place)
I0712 15:01:06.391064  7684 net.cpp:100] Setting up relu2
I0712 15:01:06.391069  7684 net.cpp:107] Top shape: 128 32 19 38 (2957312)
I0712 15:01:06.391075  7684 net.cpp:71] Creating Layer pool2
I0712 15:01:06.391080  7684 net.cpp:432] pool2 <- conv2
I0712 15:01:06.391088  7684 net.cpp:394] pool2 -> pool2
I0712 15:01:06.391093  7684 net.cpp:100] Setting up pool2
I0712 15:01:06.391099  7684 net.cpp:107] Top shape: 128 32 10 19 (778240)
I0712 15:01:06.391105  7684 net.cpp:71] Creating Layer conv3
I0712 15:01:06.391110  7684 net.cpp:432] conv3 <- pool2
I0712 15:01:06.391118  7684 net.cpp:394] conv3 -> conv3
I0712 15:01:06.391124  7684 net.cpp:100] Setting up conv3
I0712 15:01:06.391314  7684 net.cpp:107] Top shape: 128 64 8 14 (917504)
I0712 15:01:06.391324  7684 net.cpp:71] Creating Layer relu3
I0712 15:01:06.391330  7684 net.cpp:432] relu3 <- conv3
I0712 15:01:06.391335  7684 net.cpp:383] relu3 -> conv3 (in-place)
I0712 15:01:06.391341  7684 net.cpp:100] Setting up relu3
I0712 15:01:06.391346  7684 net.cpp:107] Top shape: 128 64 8 14 (917504)
I0712 15:01:06.391352  7684 net.cpp:71] Creating Layer pool3
I0712 15:01:06.391357  7684 net.cpp:432] pool3 <- conv3
I0712 15:01:06.391365  7684 net.cpp:394] pool3 -> pool3
I0712 15:01:06.391371  7684 net.cpp:100] Setting up pool3
I0712 15:01:06.391376  7684 net.cpp:107] Top shape: 128 64 4 7 (229376)
I0712 15:01:06.391382  7684 net.cpp:71] Creating Layer conv4
I0712 15:01:06.391387  7684 net.cpp:432] conv4 <- pool3
I0712 15:01:06.391394  7684 net.cpp:394] conv4 -> conv4
I0712 15:01:06.391401  7684 net.cpp:100] Setting up conv4
I0712 15:01:06.391590  7684 net.cpp:107] Top shape: 128 96 3 5 (184320)
I0712 15:01:06.391600  7684 net.cpp:71] Creating Layer relu4
I0712 15:01:06.391605  7684 net.cpp:432] relu4 <- conv4
I0712 15:01:06.391612  7684 net.cpp:383] relu4 -> conv4 (in-place)
I0712 15:01:06.391618  7684 net.cpp:100] Setting up relu4
I0712 15:01:06.391645  7684 net.cpp:107] Top shape: 128 96 3 5 (184320)
I0712 15:01:06.391652  7684 net.cpp:71] Creating Layer fc1
I0712 15:01:06.391659  7684 net.cpp:432] fc1 <- conv4
I0712 15:01:06.391665  7684 net.cpp:394] fc1 -> fc1
I0712 15:01:06.391671  7684 net.cpp:100] Setting up fc1
I0712 15:01:06.392134  7684 net.cpp:107] Top shape: 128 64 1 1 (8192)
I0712 15:01:06.392145  7684 net.cpp:71] Creating Layer relu5
I0712 15:01:06.392151  7684 net.cpp:432] relu5 <- fc1
I0712 15:01:06.392158  7684 net.cpp:383] relu5 -> fc1 (in-place)
I0712 15:01:06.392163  7684 net.cpp:100] Setting up relu5
I0712 15:01:06.392168  7684 net.cpp:107] Top shape: 128 64 1 1 (8192)
I0712 15:01:06.392175  7684 net.cpp:71] Creating Layer dropout1
I0712 15:01:06.392179  7684 net.cpp:432] dropout1 <- fc1
I0712 15:01:06.392184  7684 net.cpp:394] dropout1 -> dropout1
I0712 15:01:06.392190  7684 net.cpp:100] Setting up dropout1
I0712 15:01:06.392197  7684 net.cpp:107] Top shape: 128 64 1 1 (8192)
I0712 15:01:06.392204  7684 net.cpp:161]  share_mask().size(): 0
I0712 15:01:06.392213  7684 net.cpp:71] Creating Layer fc2
I0712 15:01:06.392218  7684 net.cpp:432] fc2 <- dropout1
I0712 15:01:06.392225  7684 net.cpp:394] fc2 -> fc2
I0712 15:01:06.392230  7684 net.cpp:100] Setting up fc2
I0712 15:01:06.392246  7684 net.cpp:107] Top shape: 128 19 1 1 (2432)
I0712 15:01:06.392253  7684 net.cpp:71] Creating Layer fc2_fc2_0_split
I0712 15:01:06.392258  7684 net.cpp:432] fc2_fc2_0_split <- fc2
I0712 15:01:06.392264  7684 net.cpp:394] fc2_fc2_0_split -> fc2_fc2_0_split_0
I0712 15:01:06.392271  7684 net.cpp:394] fc2_fc2_0_split -> fc2_fc2_0_split_1
I0712 15:01:06.392277  7684 net.cpp:100] Setting up fc2_fc2_0_split
I0712 15:01:06.392282  7684 net.cpp:107] Top shape: 128 19 1 1 (2432)
I0712 15:01:06.392287  7684 net.cpp:107] Top shape: 128 19 1 1 (2432)
I0712 15:01:06.392294  7684 net.cpp:71] Creating Layer softmax
I0712 15:01:06.392299  7684 net.cpp:432] softmax <- fc2_fc2_0_split_0
I0712 15:01:06.392307  7684 net.cpp:394] softmax -> prob
I0712 15:01:06.392313  7684 net.cpp:100] Setting up softmax
I0712 15:01:06.392321  7684 net.cpp:107] Top shape: 128 19 1 1 (2432)
I0712 15:01:06.392326  7684 net.cpp:71] Creating Layer accuracy
I0712 15:01:06.392331  7684 net.cpp:432] accuracy <- prob
I0712 15:01:06.392336  7684 net.cpp:432] accuracy <- label_data_1_split_0
I0712 15:01:06.392343  7684 net.cpp:394] accuracy -> accuracy
I0712 15:01:06.392348  7684 net.cpp:100] Setting up accuracy
I0712 15:01:06.392356  7684 net.cpp:107] Top shape: 1 1 1 1 (1)
I0712 15:01:06.392364  7684 net.cpp:71] Creating Layer loss
I0712 15:01:06.392369  7684 net.cpp:432] loss <- fc2_fc2_0_split_1
I0712 15:01:06.392374  7684 net.cpp:432] loss <- label_data_1_split_1
I0712 15:01:06.392379  7684 net.cpp:394] loss -> (automatic)
I0712 15:01:06.392385  7684 net.cpp:100] Setting up loss
I0712 15:01:06.392396  7684 net.cpp:107] Top shape: 1 1 1 1 (1)
I0712 15:01:06.392402  7684 net.cpp:113]     with loss weight 1
I0712 15:01:06.392418  7684 net.cpp:208] loss needs backward computation.
I0712 15:01:06.392423  7684 net.cpp:210] accuracy does not need backward computation.
I0712 15:01:06.392428  7684 net.cpp:210] softmax does not need backward computation.
I0712 15:01:06.392432  7684 net.cpp:208] fc2_fc2_0_split needs backward computation.
…
I0712 15:01:06.392781  7684 solver.cpp:151] Creating test net (#0) specified by net file: ocr_en_set001_train_test.prototxt
I0712 15:01:06.392802  7684 net.cpp:313] The NetState phase (1) differed from the phase (0) specified by a rule in layer data
I0712 15:01:06.392863  7684 net.cpp:43] Initializing net from parameters: 
name: "ocr_en_set001_train_test"
layers {
  top: "data"
  top: "label"
  name: "data"
  type: DATA
  data_param {
    source: "/home/wuxiang/project/text_recognition/data/words/lmdb/set001_val_lmdb"
    batch_size: 30
    backend: LMDB
  }
  include {
    phase: TEST
  }
  transform_param {
    scale: 0.00390625
  }
}
layers {
  bottom: "data"
  top: "conv1"
  name: "conv1"
  type: CONVOLUTION
  convolution_param {
    num_output: 16
    stride: 1
    weight_filler {
      type: "xavier"
    }
    bias_filler {
      type: "constant"
    }
    kernel_h: 5
    kernel_w: 9
  }
}
layers {
  bottom: "conv1"
  top: "conv1"
  name: "relu1"
  type: RELU
}
layers {
  bottom: "conv1"
  top: "pool1"
  name: "pool1"
  type: POOLING
  pooling_param {
    pool: MAX
    kernel_size: 2
    stride: 2
  }
}
layers {
  bottom: "pool1"
  top: "conv2"
  name: "conv2"
  type: CONVOLUTION
  convolution_param {
    num_output: 32
    stride: 1
    weight_filler {
      type: "xavier"
    }
    bias_filler {
      type: "constant"
    }
    kernel_h: 5
    kernel_w: 9
  }
}
layers {
  bottom: "conv2"
  top: "conv2"
  name: "relu2"
  type: RELU
}
layers {
  bottom: "conv2"
  top: "pool2"
  name: "pool2"
  type: POOLING
  pooling_param {
    pool: MAX
    kernel_size: 2
    stride: 2
  }
}
layers {
  bottom: "pool2"
  top: "conv3"
  name: "conv3"
  type: CONVOLUTION
  convolution_param {
    num_output: 64
    stride: 1
    weight_filler {
      type: "xavier"
    }
    bias_filler {
      type: "constant"
    }
    kernel_h: 3
    kernel_w: 6
  }
}
layers {
  bottom: "conv3"
  top: "conv3"
  name: "relu3"
  type: RELU
}
layers {
  bottom: "conv3"
  top: "pool3"
  name: "pool3"
  type: POOLING
  pooling_param {
    pool: MAX
    kernel_size: 2
    stride: 2
  }
}
layers {
  bottom: "pool3"
  top: "conv4"
  name: "conv4"
  type: CONVOLUTION
  convolution_param {
    num_output: 96
    stride: 1
    weight_filler {
      type: "xavier"
    }
    bias_filler {
      type: "constant"
    }
    kernel_h: 2
    kernel_w: 3
  }
}
layers {
  bottom: "conv4"
  top: "conv4"
  name: "relu4"
  type: RELU
}
layers {
  bottom: "conv4"
  top: "fc1"
  name: "fc1"
  type: INNER_PRODUCT
  inner_product_param {
    num_output: 64
    weight_filler {
      type: "xavier"
    }
    bias_filler {
      type: "constant"
      value: 0.1
    }
  }
}
layers {
  bottom: "fc1"
  top: "fc1"
  name: "relu5"
  type: RELU
}
layers {
  bottom: "fc1"
  top: "dropout1"
  name: "dropout1"
  type: DROPOUT
  dropout_param {
    dropout_ratio: 0.5
  }
}
layers {
  bottom: "dropout1"
  top: "fc2"
  name: "fc2"
  type: INNER_PRODUCT
  inner_product_param {
    num_output: 19
    weight_filler {
      type: "xavier"
    }
    bias_filler {
      type: "constant"
      value: 0.1
    }
  }
}
layers {
  bottom: "fc2"
  top: "prob"
  name: "softmax"
  type: SOFTMAX
}
layers {
  bottom: "prob"
  bottom: "label"
  top: "accuracy"
  name: "accuracy"
  type: ACCURACY
}
layers {
  bottom: "fc2"
  bottom: "label"
  name: "loss"
  type: SOFTMAX_LOSS
  loss_weight: 1
}
state {
  phase: TEST
}
I0712 15:01:06.393275  7684 net.cpp:71] Creating Layer data
I0712 15:01:06.393285  7684 net.cpp:394] data -> data
I0712 15:01:06.393292  7684 net.cpp:394] data -> label
I0712 15:01:06.393299  7684 net.cpp:100] Setting up data
I0712 15:01:06.393332  7684 data_layer.cpp:68] Opening lmdb /home/wuxiang/project/text_recognition/data/words/lmdb/set001_val_lmdb
I0712 15:01:06.393347  7684 data_layer.cpp:128] output data size: 30,1,50,100
I0712 15:01:06.393481  7684 net.cpp:107] Top shape: 30 1 50 100 (150000)
I0712 15:01:06.393488  7684 net.cpp:107] Top shape: 30 1 1 1 (30)
I0712 15:01:06.393496  7684 net.cpp:71] Creating Layer label_data_1_split
I0712 15:01:06.393501  7684 net.cpp:432] label_data_1_split <- label
I0712 15:01:06.393507  7684 net.cpp:394] label_data_1_split -> label_data_1_split_0
I0712 15:01:06.393514  7684 net.cpp:394] label_data_1_split -> label_data_1_split_1
I0712 15:01:06.393520  7684 net.cpp:100] Setting up label_data_1_split
I0712 15:01:06.393527  7684 net.cpp:107] Top shape: 30 1 1 1 (30)
I0712 15:01:06.393532  7684 net.cpp:107] Top shape: 30 1 1 1 (30)
I0712 15:01:06.393539  7684 net.cpp:71] Creating Layer conv1
I0712 15:01:06.393545  7684 net.cpp:432] conv1 <- data
I0712 15:01:06.393551  7684 net.cpp:394] conv1 -> conv1
I0712 15:01:06.393558  7684 net.cpp:100] Setting up conv1
I0712 15:01:06.393575  7684 net.cpp:107] Top shape: 30 16 46 92 (2031360)
I0712 15:01:06.393586  7684 net.cpp:71] Creating Layer relu1
I0712 15:01:06.393591  7684 net.cpp:432] relu1 <- conv1
I0712 15:01:06.393597  7684 net.cpp:383] relu1 -> conv1 (in-place)
I0712 15:01:06.393604  7684 net.cpp:100] Setting up relu1
I0712 15:01:06.393609  7684 net.cpp:107] Top shape: 30 16 46 92 (2031360)
I0712 15:01:06.393615  7684 net.cpp:71] Creating Layer pool1
I0712 15:01:06.393620  7684 net.cpp:432] pool1 <- conv1
I0712 15:01:06.393626  7684 net.cpp:394] pool1 -> pool1
I0712 15:01:06.393633  7684 net.cpp:100] Setting up pool1
I0712 15:01:06.393640  7684 net.cpp:107] Top shape: 30 16 23 46 (507840)
I0712 15:01:06.393646  7684 net.cpp:71] Creating Layer conv2
I0712 15:01:06.393651  7684 net.cpp:432] conv2 <- pool1
I0712 15:01:06.393656  7684 net.cpp:394] conv2 -> conv2
I0712 15:01:06.393662  7684 net.cpp:100] Setting up conv2
I0712 15:01:06.393786  7684 net.cpp:107] Top shape: 30 32 19 38 (693120)
I0712 15:01:06.393795  7684 net.cpp:71] Creating Layer relu2
I0712 15:01:06.393801  7684 net.cpp:432] relu2 <- conv2
I0712 15:01:06.393806  7684 net.cpp:383] relu2 -> conv2 (in-place)
I0712 15:01:06.393813  7684 net.cpp:100] Setting up relu2
I0712 15:01:06.393820  7684 net.cpp:107] Top shape: 30 32 19 38 (693120)
I0712 15:01:06.393825  7684 net.cpp:71] Creating Layer pool2
I0712 15:01:06.393829  7684 net.cpp:432] pool2 <- conv2
I0712 15:01:06.393836  7684 net.cpp:394] pool2 -> pool2
I0712 15:01:06.393841  7684 net.cpp:100] Setting up pool2
I0712 15:01:06.393847  7684 net.cpp:107] Top shape: 30 32 10 19 (182400)
I0712 15:01:06.393856  7684 net.cpp:71] Creating Layer conv3
I0712 15:01:06.393860  7684 net.cpp:432] conv3 <- pool2
I0712 15:01:06.393867  7684 net.cpp:394] conv3 -> conv3
I0712 15:01:06.393873  7684 net.cpp:100] Setting up conv3
I0712 15:01:06.394063  7684 net.cpp:107] Top shape: 30 64 8 14 (215040)
I0712 15:01:06.394073  7684 net.cpp:71] Creating Layer relu3
I0712 15:01:06.394078  7684 net.cpp:432] relu3 <- conv3
I0712 15:01:06.394085  7684 net.cpp:383] relu3 -> conv3 (in-place)
I0712 15:01:06.394091  7684 net.cpp:100] Setting up relu3
I0712 15:01:06.394096  7684 net.cpp:107] Top shape: 30 64 8 14 (215040)
I0712 15:01:06.394103  7684 net.cpp:71] Creating Layer pool3
I0712 15:01:06.394107  7684 net.cpp:432] pool3 <- conv3
I0712 15:01:06.394114  7684 net.cpp:394] pool3 -> pool3
I0712 15:01:06.394119  7684 net.cpp:100] Setting up pool3
I0712 15:01:06.394125  7684 net.cpp:107] Top shape: 30 64 4 7 (53760)
I0712 15:01:06.394131  7684 net.cpp:71] Creating Layer conv4
I0712 15:01:06.394156  7684 net.cpp:432] conv4 <- pool3
I0712 15:01:06.394163  7684 net.cpp:394] conv4 -> conv4
I0712 15:01:06.394170  7684 net.cpp:100] Setting up conv4
I0712 15:01:06.394359  7684 net.cpp:107] Top shape: 30 96 3 5 (43200)
I0712 15:01:06.394368  7684 net.cpp:71] Creating Layer relu4
I0712 15:01:06.394374  7684 net.cpp:432] relu4 <- conv4
I0712 15:01:06.394381  7684 net.cpp:383] relu4 -> conv4 (in-place)
I0712 15:01:06.394387  7684 net.cpp:100] Setting up relu4
I0712 15:01:06.394392  7684 net.cpp:107] Top shape: 30 96 3 5 (43200)
I0712 15:01:06.394397  7684 net.cpp:71] Creating Layer fc1
I0712 15:01:06.394402  7684 net.cpp:432] fc1 <- conv4
I0712 15:01:06.394408  7684 net.cpp:394] fc1 -> fc1
I0712 15:01:06.394414  7684 net.cpp:100] Setting up fc1
I0712 15:01:06.394882  7684 net.cpp:107] Top shape: 30 64 1 1 (1920)
I0712 15:01:06.394894  7684 net.cpp:71] Creating Layer relu5
I0712 15:01:06.394901  7684 net.cpp:432] relu5 <- fc1
I0712 15:01:06.394906  7684 net.cpp:383] relu5 -> fc1 (in-place)
I0712 15:01:06.394912  7684 net.cpp:100] Setting up relu5
I0712 15:01:06.394917  7684 net.cpp:107] Top shape: 30 64 1 1 (1920)
I0712 15:01:06.394922  7684 net.cpp:71] Creating Layer dropout1
I0712 15:01:06.394927  7684 net.cpp:432] dropout1 <- fc1
I0712 15:01:06.394933  7684 net.cpp:394] dropout1 -> dropout1
I0712 15:01:06.394939  7684 net.cpp:100] Setting up dropout1
I0712 15:01:06.394945  7684 net.cpp:107] Top shape: 30 64 1 1 (1920)
I0712 15:01:06.394950  7684 net.cpp:161]  share_mask().size(): 0
I0712 15:01:06.394958  7684 net.cpp:71] Creating Layer fc2
I0712 15:01:06.394963  7684 net.cpp:432] fc2 <- dropout1
I0712 15:01:06.394971  7684 net.cpp:394] fc2 -> fc2
I0712 15:01:06.394978  7684 net.cpp:100] Setting up fc2
I0712 15:01:06.394991  7684 net.cpp:107] Top shape: 30 19 1 1 (570)
I0712 15:01:06.394999  7684 net.cpp:71] Creating Layer fc2_fc2_0_split
I0712 15:01:06.395005  7684 net.cpp:432] fc2_fc2_0_split <- fc2
I0712 15:01:06.395010  7684 net.cpp:394] fc2_fc2_0_split -> fc2_fc2_0_split_0
I0712 15:01:06.395017  7684 net.cpp:394] fc2_fc2_0_split -> fc2_fc2_0_split_1
I0712 15:01:06.395023  7684 net.cpp:100] Setting up fc2_fc2_0_split
I0712 15:01:06.395028  7684 net.cpp:107] Top shape: 30 19 1 1 (570)
I0712 15:01:06.395033  7684 net.cpp:107] Top shape: 30 19 1 1 (570)
I0712 15:01:06.395040  7684 net.cpp:71] Creating Layer softmax
I0712 15:01:06.395045  7684 net.cpp:432] softmax <- fc2_fc2_0_split_0
I0712 15:01:06.395051  7684 net.cpp:394] softmax -> prob
I0712 15:01:06.395058  7684 net.cpp:100] Setting up softmax
I0712 15:01:06.395063  7684 net.cpp:107] Top shape: 30 19 1 1 (570)
I0712 15:01:06.395071  7684 net.cpp:71] Creating Layer accuracy
I0712 15:01:06.395076  7684 net.cpp:432] accuracy <- prob
I0712 15:01:06.395081  7684 net.cpp:432] accuracy <- label_data_1_split_0
I0712 15:01:06.395087  7684 net.cpp:394] accuracy -> accuracy
I0712 15:01:06.395093  7684 net.cpp:100] Setting up accuracy
I0712 15:01:06.395098  7684 net.cpp:107] Top shape: 1 1 1 1 (1)
I0712 15:01:06.395105  7684 net.cpp:71] Creating Layer loss
I0712 15:01:06.395112  7684 net.cpp:432] loss <- fc2_fc2_0_split_1
I0712 15:01:06.395117  7684 net.cpp:432] loss <- label_data_1_split_1
I0712 15:01:06.395123  7684 net.cpp:394] loss -> (automatic)
I0712 15:01:06.395128  7684 net.cpp:100] Setting up loss
I0712 15:01:06.395136  7684 net.cpp:107] Top shape: 1 1 1 1 (1)
I0712 15:01:06.395143  7684 net.cpp:113]     with loss weight 1
I0712 15:01:06.395149  7684 net.cpp:208] loss needs backward computation.
I0712 15:01:06.395155  7684 net.cpp:210] accuracy does not need backward computation.
I0712 15:01:06.395160  7684 net.cpp:210] softmax does not need backward computation.
I0712 15:01:06.395165  7684 net.cpp:208] fc2_fc2_0_split needs backward computation.
…
